…
 0 | . 4 3 | male | M | S | False | 29.000000 | -6.569921e-09 | 3.638987e-09 | 0 | . 5 2 | female | M | S | False | 25.000000 | -6.569921e-09 | 1.000000e+00 | 1 | . 6 3 | female | M | S | False | 30.000000 | 1.000000e+00 | 1.000000e+00 | 0 | . 7 3 | male | M | S | False | 9.000000 | 5.000000e+00 | 2.000000e+00 | 0 | . 8 1 | female | B | #na# | False | 38.000000 | -6.569921e-09 | 3.638987e-09 | 1 | . 9 2 | male | M | S | False | 23.000000 | -6.569921e-09 | 3.638987e-09 | 0 | . learn = tabular_learner(dls, metrics=[ accuracy],layers=[50,25]) . learn.model . TabularModel( (embeds): ModuleList( (0): Embedding(4, 3) (1): Embedding(3, 3) (2): Embedding(10, 6) (3): Embedding(4, 3) (4): Embedding(3, 3) ) (emb_drop): Dropout(p=0.0, inplace=False) (bn_cont): BatchNorm1d(3, eps=1e-05, momentum=0.1, affine=True, track_running_stats=True) (layers): Sequential( (0): LinBnDrop( (0): BatchNorm1d(21, eps=1e-05, momentum=0.1, affine=True, track_running_stats=True) (1): Linear(in_features=21, out_features=50, bias=False) (2): ReLU(inplace=True) ) (1): LinBnDrop( (0): BatchNorm1d(50, eps=1e-05, momentum=0.1, affine=True, track_running_stats=True) (1): Linear(in_features=50, out_features=25, bias=False) (2): ReLU(inplace=True) ) (2): LinBnDrop( (0): Linear(in_features=25, out_features=2, bias=True) ) ) ) . learn.lr_find() . SuggestedLRs(lr_min=0.05248074531555176, lr_steep=0.015848932787775993) . learn.save(&#39;empty&#39;) . Path(&#39;models/empty.pth&#39;) . learn = learn.load(&#39;empty&#39;) . learn.fit_one_cycle(16,0.005) . epoch train_loss valid_loss accuracy time . 0 | 0.728459 | 0.718059 | 0.421348 | 00:00 | . 1 | 0.690266 | 0.711980 | 0.421
…
.468802 | -0.471482 | 0.0 | 0.0 | . 8 2.0 | 2.0 | 8.0 | 3.0 | 1.0 | 2.381604 | 0.427327 | 0.737750 | 0.0 | 0.0 | . dl_test=learn.dls.test_dl(test) . probs,_ =learn.get_preds(dl=dl_test) . y = np.argmax(probs,1) y = np.array(y) . submission[&#39;Survived&#39;]=y.astype(int) . submission.to_csv(&#39;sub.csv&#39;,index=False) !kaggle competitions submit titanic -f sub.csv -m &quot;nn mid&quot; . 100%|██████████████████████████████████████| 2.77k/2.77k [00:02&lt;00:00, 1.07kB/s] Successfully submitted to Titanic: Machine Learning from Disaster . learn.model . TabularModel( (embeds): ModuleList( (0): Embedding(4, 3) (1): Embedding(3, 3) (2): Embedding(10, 6) (3): Embedding(4, 3) (4): Embedding(3, 3) ) (emb_drop): Dropout(p=0.0, inplace=False) (bn_cont): BatchNorm1d(3, eps=1e-05, momentum=0.1, affine=True, track_running_stats=True) (layers): Sequential( (0): LinBnDrop( (0): BatchNorm1d(21, eps=1e-05, momentum=0.1, affine=True, track_running_stats=True) (1): Linear(in_features=21, out_features=50, bias=False) (2): ReLU(inplace=True) ) (1): LinBnDrop( (0): BatchNorm1d(50, eps=1e-05, momentum=0.1, affine=True, track_running_stats=True) (1): Linear(in_features=50, out_features=25, bias=False) (2): ReLU(inplace=True) ) (2): LinBnDrop( (0): Linear(in_features=25, out_features=2, bias=True) ) ) ) . learn.recorder.plot_sched() .",
            "url": "https://nrosanas.github.io/blog/2020/10/14/_Titanic.html",
            "relUrl": "/2020/10/14/_Titanic.html",
            "date": " • Oct 14, 2020"
        }
        
    
  
    
        ,"post1": {
            "title": "Fastpages Notebook Blog Post",
            "content": "About . This noteboo
…
